…
3200/3200 - 14s - loss: 0.1632 - mae: 0.2168 - mape: 164.1225 - val_loss: 0.1624 - val_mae: 0.2183 - val_mape: 146.9067
Epoch 27/150
3200/3200 - 14s - loss: 0.1632 - mae: 0.2166 - mape: 400.6432 - val_loss: 0.1629 - val_mae: 0.2176 - val_mape: 152.0436
Epoch 28/150
3200/3200 - 13s - loss: 0.1631 - mae: 0.2163 - mape: 162.6159 - val_loss: 0.1626 - val_mae: 0.2177 - val_mape: 148.2433
Model: "sequential"
_________________________________________________________________
Layer (type)                 Output Shape              Param #   
=================================================================
noise_and_standardize (noise (256, 109, 1)             0         
_________________________________________________________________
conv1d (Conv1D)              (256, 98, 25)             325       
_________________________________________________________________
conv1d_1 (Conv1D)            (256, 87, 25)             7525      
_________________________________________________________________
max_pooling1d (MaxPooling1D) (256, 43, 25)             0         
_________________________________________________________________
conv1d_2 (Conv1D)            (256, 36, 50)             10050     
_________________________________________________________________
conv1d_3 (Conv1D)            (256, 29, 50)             20050     
_________________________________________________________________
max_pooling1d_1 (MaxPooling1 (256, 14, 50)             0         
_________________________________________________________________
conv1d_4 (Conv1D)            (256, 11, 75)             15075     
_________________________________________________________________
conv1d_5 (Conv1D)            (256, 8, 75)              22575     
_________________________________________________________________
max_pooling1d_2 (MaxPooling1 (256, 4, 75)              0         
_________________________________________________________________
flatten (Flatten)            (256, 300)                0         
_________________________________________________________________
dense (Dense)                (256, 300)                90300     
_________________________________________________________________
dense_1 (Dense)              (256, 3)                  903       
=================================================================
Total params: 166,803
Trainable params: 166,803
Non-trainable params: 0
_________________________________________________________________
None
Synth median param error: [113.63769804  23.30859991   0.4350037 ]
Synth mse median: 0.5246257781982422
CNN
Exp median param error: (7.0155818011046875, 3.450293770881182, 0.8191039829717957)
…
